test-data/models/tflite/model-export_icn_tflite-model_exportable_2-2021-05-28T21_55_41.973132Z_model.tflite (tflite, 587483 bytes, 54 tensors)

mnas_v4_a_035/output/fc/tf_layer/bias f4 [2]
000000 11 df 42 3c 7f df 42 bc
       0.0118940035 -0.011894106

mnas_v4_a_035_1/output/fc/MatMul;mnas_v4_a_035_1/output/fc/weights_quant/FakeQuantWithMinMaxVars f4 [2, 1280]
000000 00 7e 08 3f 80 fd b5 3b 80 dc ee bd d8 dd 13 3e
       0.5331726 0.005553901 -0.11663151 0.14440095
000010 a0 54 e6 3e a0 7c e3 bc d4 dd 93 be 5f 25 b3 be
       0.4498644 -0.027769387 -0.2888018 -0.3498945
000020 54 fd 35 be 15 ce 02 bf af d1 1d bf 6a 4d 30 bf
       -0.17772418 -0.51095706 -0.61648077 -0.68868124
000030 e0 05 91 3e ea 2d 0e bf 7f 9d 2a bf bf 8d 19 bf
       0.28324795 -0.5553881 -0.6664657 -0.5998191
000040 00 00 00 00 ca f4 da be f5 55 0b bf 10 3a 04 3f
       0.0 -0.42764884 -0.54428035 0.51651096
000050 54 fd 35 be 9f 15 22 bf ac 3d 1f 3e 74 75 ad 3e
       -0.17772418 -0.6331424 0.1555087 0.33878672
000060 54 fd 35 be 00 7e 88 3e c0 8d 19 3f 40 ad bb 3e
       -0.17772418 0.2665863 0.5998192 0.36655617
000070 6a 4d 30 bf e0 05 91 3e d8 1c d8 3d ca b5 16 bf
       -0.68868124 0.28324795 0.105523765 -0.5887114
000080 8f 59 26 bf cc b5 96 3e 7f 9d 2a bf 6a 8c f4 be
       -0.64980406 0.29435575 -0.6664657 -0.47763377
000090 00 7e 88 bd 18 ce 02 3e 00 7e 88 3d ca b5 96 be
       -0.066646576 0.12773931 0.066646576 -0.2943557
0000a0 ca b5 16 bf 00 7e 88 3e 40 ad 3b be 8f 59 26 bf
       -0.5887114 0.2665863 -0.18327808 -0.64980406
0000b0 18 ce 02 3e 6c 4d b0 3e 1a 62 01 3f 8a c5 a7 be
       0.12773931 0.34434068 0.50540316 -0.32767898
0000c0 74 b4 f1 be 96 ed 24 3f 6a 4d 30 bf f4 55 8b be
       -0.47207987 0.6442503 -0.68868124 -0.27214015
0000d0 e0 05 11 3f cf 49 15 bf 54 fd b5 3e f4 94 cf be
       0.5664959 -0.5831575 0.35544837 -0.4054333
0000e0 a0 54 e6 3e 80 9d aa 3d d0 dd 93 bd b0 3d 1f 3d
       0.4498644 0.08330822 -0.07220042 0.03887719
0000f0 ea 6c d2 be e0 44 d5 3e 00 7e 88 bd 00 bd 4c bd
       -0.4109872 0.4165411 -0.066646576 -0.049984932
000100 00 7e 08 3d b0 7c 63 3d 94 ed a4 be da 71 12 3f
       0.033323288 0.055538833 -0.32212508 0.57204974
000110 94 2c 69 be d5 dd 13 bf 60 25 b3 3e 86 31 29 3f
       -0.22770911 -0.57760364 0.34989452 0.6609119
000120 96 ed 24 3f 18 0d 47 3e 74 b4 f1 3e 10 3a 04 bf
       0.6442503 0.19438589 0.47207987 -0.51651096
000130 b0 3d 1f 3d 00 bd 4c 3d 7a 09 2c 3f 0a a6 05 3f
       0.03887719 0.049984932 0.6720196 0.5220648
000140 06 12 07 3f 34 85 be 3e a8 7c e3 bd 6c 8c f4 3e
       0.52761877 0.37211 -0.11107761 0.47763383
000150 d4 dd 93 be 00 7e 08 be e0 05 11 3f 80 dc ee 3d
       -0.2888018 -0.13329315 0.5664959 0.11663151
000160 5f 25 33 bf af d1 1d bf b0 7c e3 3d e0 05 91 3e
       -0.699789 -0.61648077 0.11107767 0.28324795
000170 c0 8d 99 3e bf 8d 99 be df 05 91 be 86 31 29 3f
       0.2999096 -0.29990956 -0.28324792 0.6609119
000180 05 12 07 bf e5 99 0f bf aa 7c e3 be 7e dc 6e be
       -0.5276187 -0.560942 -0.4443105 -0.23326299
000190 1a 62 01 bf 8a c5 a7 be e0 05 91 3e 40 ec ff 3e
       -0.50540316 -0.32767898 0.28324795 0.49984932
0001a0 00 00 00 00 d8 1c d8 3d 40 ad 3b 3e 60 fd b5 3c
       0.0 0.105523765 0.18327808 0.022215545
0001b0 e0 05 11 3f e0 05 91 3e ea 2d 8e be 85 31 29 bf
       0.5664959 0.28324795 -0.27769405 -0.66091186
0001c0 70 e1 2e 3f 94 ed a4 be 5f 25 b3 be 00 7e 88 3d
       0.6831274 -0.32212508 -0.3498945 0.066646576
0001d0 80 9d 2a 3f 40 ec 7f 3e e0 05 91 3e ca b5 96 be
       0.66646576 0.24992466 0.28324795 -0.2943557
0001e0 7f dc ee be e0 05 11 3f cc f4 da 3e 76 75 2d 3f
       -0.466526 0.5664959 0.4276489 0.67757356
0001f0 e0 05 91 3e 8c 04 ec 3e 80 fd b5 3b 54 3c fa be
       0.28324795 0.4609722 0.005553901 -0.48874152
000200 e5 99 0f bf aa 3d 1f bf ec 2d 0e 3e 40 fd 35 bc
       -0.560942 -0.62203467 0.13884705 -0.011107743
000210 1a 62 01 bf 00 fd b5 bb c0 cc 5d 3e 60 fd 35 3d
       -0.50540316 -0.0055538416 0.21660137 0.04443109
000220 ec 6c d2 3e ac 7c 63 3e a0 3d 1f bd ec 6c 52 3e
       0.41098726 0.22215527 -0.03887713 0.20549363
000230 9f 15 a2 be 80 dc ee 3d c5 21 18 bf c0 cc 5d 3e
       -0.3165712 0.11663151 -0.5942653 0.21660137
000240 60 fd b5 3c 8c 04 ec 3e 00 7e 88 3e b4 a4 e0 3e
       0.022215545 0.4609722 0.2665863 0.4387566
000250 6c 4d b0 3e 80 9d aa bd df 44 d5 be 5f 25 33 bf
       0.34434068 -0.08330822 -0.41654107 -0.699789
000260 8a c5 a7 be ca b5 16 bf 60 64 f7 3e 50 fd b5 bd
       -0.32767898 -0.5887114 0.48318768 -0.08886206
000270 d4 dd 13 be 58 3c fa 3d e0 44 d5 3e e0 05 91 3e
       -0.1444009 0.12218541 0.4165411 0.28324795
000280 00 7e 08 3d e0 05 11 bf 00 7e 08 be 95 ed 24 bf
       0.033323288 -0.5664959 -0.13329315 -0.6442502
000290 fa e9 09 bf d4 dd 13 be 0a a6 05 3f e0 05 91 3e
       -0.53872645 -0.1444009 0.5220648 0.28324795
0002a0 14 0d c7 3e ec 2d 8e 3e 7f 9d 2a bf d0 49 15 3f
       0.38877165 0.2776941 -0.6664657 0.58315754
0002b0 00 7e 88 3e 00 bd cc 3e 68 4d 30 be a5 a9 20 bf
       0.2665863 0.39987946 -0.17217028 -0.62758857
0002c0 14 0d c7 3e 80 9d aa 3e d6 dd 93 3e 3e ec 7f be
       0.38877165 0.33323288 0.28880185 -0.24992463
0002d0 2a 5d c1 be ca b5 16 bf 0c e5 c9 3e 00 bd 4c bd
       -0.3776639 -0.5887114 0.3943256 -0.049984932
0002e0 ac 7c 63 3e a8 7c 63 be 14 ce 02 be 00 7e 88 bc
       0.22215527 -0.22215521 -0.12773925 -0.016661644
0002f0 aa 3d 1f bf 18 0d 47 3e 80 9d aa 3e ea 2d 8e be
       -0.62203467 0.19438589 0.33323288 -0.27769405
000300 b4 a4 e0 3e 05 12 07 bf be cc 5d be f4 94 cf be
       0.4387566 -0.5276187 -0.21660134 -0.4054333
000310 10 3a 04 3f 10 3a 04 bf 4a 14 fd be 7a 09 2c bf
       0.51651096 -0.51651096 -0.49429542 -0.6720196
000320 00 7e 08 3f b4 a4 e0 be 1a 62 01 3f 14 0d c7 be
       0.5331726 -0.4387566 0.50540316 -0.38877165
000330 70 e1 2e 3f 18 ce 02 3e 00 7e 08 3d ec 2d 8e 3e
       0.6831274 0.12773931 0.033323288 0.2776941
000340 ac 7c e3 3e b4 65 9c 3e 06 12 07 3f ca b5 16 3f
       0.44431055 0.30546343 0.52761877 0.5887114
000350 50 3c 7a bd a8 7c 63 be 8a c5 27 bf 96 ed 24 3f
       -0.061092675 -0.22215521 -0.65535796 0.6442503
000360 40 ec ff 3e 00 7e 88 3c a8 7c 63 be 8c 04 ec 3e
       0.49984932 0.016661644 -0.22215521 0.4609722
000370 f4 94 cf be 58 3c 7a 3e 0c a6 85 3e 5f 25 b3 be
       -0.4054333 0.24437082 0.26103246 -0.3498945
000380 68 8c 74 be 1a 62 01 bf ec 2d 0e 3e a6 a9 20 3f
       -0.23881686 -0.50540316 0.13884705 0.6275886
000390 b6 65 1c 3f 0a e5 c9 be 50 3c 7a bd aa 7c e3 be
       0.610927 -0.39432555 -0.061092675 -0.4443105
0003a0 6c 4d b0 3e 54 fd b5 be b0 3d 9f 3d 9a 81 23 3f
       0.34434068 -0.35544837 0.07775438 0.6386963
0003b0 e0 05 91 3e 00 7e 08 3f 58 3c fa 3d d0 1c d8 bd
       0.28324795 0.5331726 0.12218541 -0.105523705
0003c0 c0 7c e3 3c d8 dd 13 3e 74 b4 f1 3e fa e9 09 bf
       0.027769446 0.14440095 0.47207987 -0.53872645
0003d0 6a 4d 30 3f 34 85 be 3e c5 21 18 bf 95 ed 24 bf
       0.68868124 0.37211 -0.5942653 -0.6442502
0003e0 a5 a9 20 bf 40 ad bb 3e 74 b4 f1 be 94 2c e9 3e
       -0.62758857 0.36655617 -0.47207987 0.45541823
0003f0 3e ec 7f be a8 7c 63 be 80 9d 2a 3f 6a 4d 30 bf
       -0.24992463 -0.22215521 0.66646576 -0.68868124

mnas_v4_a_035_1/feature_network/stem/conv/Conv2D_Fold;mnas_v4_a_035_1/feature_network/stem/conv/weights_quant/FakeQuantWithMinMaxVars u1 [16, 3, 3, 3] scale=0.11038639 zero_point=138
000000 80 79 87 7e 75 83 87 84 85 7f 7d 86 7e 79 85 88
       -1.1038638 -1.8765686 -0.33115917 -1.3246367 -2.318114 -0.7727047 -0.33115917 -0.66231835 -0.5519319 -1.2142502 -1.4350231 -0.44154555 -1.3246367 -1.8765686 -0.5519319 -0.22077277
000010 88 88 89 89 8a 8b 8b 8c 8c 8c 8a 8c 82 8f 8e 82
       -0.22077277 -0.22077277 -0.11038639 -0.11038639 0.0 0.11038639 0.11038639 0.22077277 0.22077277 0.22077277 0.0 0.22077277 -0.8830911 0.5519319 0.44154555 -0.8830911
000020 8e 8f 85 8e 8a 82 8d 8b 81 8c 8c 82 8d 8a 83 8d
       0.44154555 0.5519319 -0.5519319 0.44154555 0.0 -0.8830911 0.33115917 0.11038639 -0.99347746 0.22077277 0.22077277 -0.8830911 0.33115917 0.0 -0.7727047 0.33115917
000030 8a 81 8c 8c 85 8e 8b 8f 8e 81 73 81 90 9a 92 a2
       0.0 -0.99347746 0.22077277 0.22077277 -0.5519319 0.44154555 0.11038639 0.5519319 0.44154555 -0.99347746 -2.5388868 -0.99347746 0.66231835 1.7661822 0.8830911 2.6492734
000040 b6 93 5e 32 76 ae cb 99 9b a1 8e 61 4c 7f a3 b1
       4.857001 0.99347746 -4.857001 -9.714002 -2.2077277 3.9739099 7.175115 1.6557958 1.8765686 2.5388868 0.44154555 -4.5258417 -6.843956 -1.2142502 2.7596598 4.305069
000050 90 85 80 85 89 87 8c 7b 79 83 85 87 87 88 86 89
       0.66231835 -0.5519319 -1.1038638 -0.5519319 -0.11038639 -0.33115917 0.22077277 -1.6557958 -1.8765686 -0.7727047 -0.5519319 -0.33115917 -0.33115917 -0.22077277 -0.44154555 -0.11038639
000060 89 88 8a 89 8c 8b 88 88 88 94 94 8f 80 8f 90 83
       -0.11038639 -0.22077277 0.0 -0.11038639 0.22077277 0.11038639 -0.22077277 -0.22077277 -0.22077277 1.1038638 1.1038638 0.5519319 -1.1038638 0.5519319 0.66231835 -0.7727047
000070 8e 8e 84 8e 8d 83 8e 8d 87 8d 8a 87 8d 8a 7e 8d
       0.44154555 0.44154555 -0.66231835 0.44154555 0.33115917 -0.7727047 0.44154555 0.33115917 -0.33115917 0.33115917 0.0 -0.33115917 0.33115917 0.0 -1.3246367 0.33115917
000080 90 81 8d 8f 84 8e 8c 87 91 85 88 92 84 88 92 88
       0.66231835 -0.99347746 0.33115917 0.5519319 -0.66231835 0.44154555 0.22077277 -0.33115917 0.7727047 -0.5519319 -0.22077277 0.8830911 -0.66231835 -0.22077277 0.8830911 -0.22077277
000090 85 90 84 85 8f 82 87 91 83 84 92 83 83 92 82 87
       -0.5519319 0.66231835 -0.66231835 -0.5519319 0.5519319 -0.8830911 -0.33115917 0.7727047 -0.7727047 -0.66231835 0.8830911 -0.7727047 -0.7727047 0.8830911 -0.8830911 -0.33115917
0000a0 93 85 89 83 89 95 86 81 9e 90 80 87 84 8d 93 88
       0.99347746 -0.5519319 -0.11038639 -0.7727047 -0.11038639 1.2142502 -0.44154555 -0.99347746 2.2077277 0.66231835 -1.1038638 -0.33115917 -0.66231835 0.33115917 0.99347746 -0.22077277
0000b0 86 9b 90 84 83 85 90 8d 87 89 92 8c 85 87 8a 8c
       -0.44154555 1.8765686 0.66231835 -0.66231835 -0.7727047 -0.5519319 0.66231835 0.33115917 -0.33115917 -0.11038639 0.8830911 0.22077277 -0.5519319 -0.33115917 0.0 0.22077277
0000c0 8c 8b 8a 90 8e 8a 85 89 8d 8a 8a 8a 8d 8b 8a 87
       0.22077277 0.11038639 0.0 0.66231835 0.44154555 0.0 -0.5519319 -0.11038639 0.33115917 0.0 0.0 0.0 0.33115917 0.11038639 0.0 -0.33115917
0000d0 89 8e 89 88 8b 89 89 8d a1 ad 97 ce fd a4 b7 d3
       -0.11038639 0.44154555 -0.11038639 -0.22077277 0.11038639 -0.11038639 -0.11038639 0.33115917 2.5388868 3.8635235 1.4350231 7.506274 12.694434 2.8700461 4.967387 8.058207
0000e0 a0 6e 5f 7f 40 01 6e 5b 33 76 89 88 88 96 ad 8e
       2.4285004 -3.090819 -4.7466145 -1.2142502 -8.168592 -15.122935 -3.090819 -5.18816 -9.603616 -2.2077277 -0.11038639 -0.22077277 -0.22077277 1.3246367 3.8635235 0.44154555
0000f0 8d 99 8f 8a 8b 89 8a 8c 8c 8b 8f 8f 8b 89 87 8c
       0.33115917 1.6557958 0.5519319 0.0 0.11038639 -0.11038639 0.0 0.22077277 0.22077277 0.11038639 0.5519319 0.5519319 0.11038639 -0.11038639 -0.33115917 0.22077277

mnas_v4_a_035_1/feature_network/lead_cell_0/op_0/depthwise_0/depthwise_Fold;mnas_v4_a_035_1/feature_network/lead_cell_0/op_0/depthwise_0/weights_quant/FakeQuantWithMinMaxVars u1 [1, 3, 3, 16] scale=0.043933213 zero_point=178
000000 b5 ca b8 b1 8b c6 a9 bc b2 c8 99 c2 c4 a5 cd b3
       0.13179964 1.0543971 0.26359928 -0.043933213 -1.7133954 0.87866426 -0.3953989 0.43933213 0.0 0.9665307 -1.0983303 0.7029314 0.7907978 -0.57113177 1.1861968 0.043933213
000010 cd a1 c2 ba c4 a5 a5 01 8e 2b 85 a8 46 dc b1 87
       1.1861968 -0.7468646 0.7029314 0.3514657 0.7907978 -0.57113177 -0.57113177 -7.776179 -1.5815957 -5.9309835 -1.9769945 -0.43933213 -4.744787 1.8451949 -0.043933213 -1.8891282
000020 b9 8a 9f aa e4 8f ae d7 b2 e6 b4 90 ae b0 99 d9
       0.3075325 -1.7573285 -0.83473104 -0.3514657 2.1966605 -1.5376625 -0.17573285 1.6255288 0.0 2.284527 0.087866426 -1.4937292 -0.17573285 -0.087866426 -1.0983303 1.7133954
000030 b2 b9 ad cb a6 b9 b2 a3 b1 9e c9 b5 cc ff cb b2
       0.0 0.3075325 -0.21966606 1.0983303 -0.52719855 0.3075325 0.0 -0.6589982 -0.043933213 -0.87866426 1.010464 0.13179964 1.1422635 3.3828573 1.0983303 0.0
000040 ae ad ae b5 b4 ae ae 0f d7 1c c6 af a2 af b9 b0
       -0.17573285 -0.21966606 -0.17573285 0.13179964 0.087866426 -0.17573285 -0.17573285 -7.1611137 1.6255288 -6.589982 0.87866426 -0.13179964 -0.7029314 -0.13179964 0.3075325 -0.087866426
000050 b3 a3 af 93 c7 a4 b3 9a b2 73 b7 a3 bb 45 93 c1
       0.043933213 -0.6589982 -0.13179964 -1.3619297 0.92259747 -0.615065 0.043933213 -1.0543971 0.0 -2.7677925 0.21966606 -0.6589982 0.3953989 -4.78872 -1.3619297 0.6589982
000060 af a9 b4 bb c6 a9 b7 bb b0 b7 b3 ac a8 9e a8 b2
       -0.13179964 -0.3953989 0.087866426 0.3953989 0.87866426 -0.3953989 0.21966606 0.3953989 -0.087866426 0.21966606 0.043933213 -0.26359928 -0.43933213 -0.87866426 -0.43933213 0.0
000070 9c ba b5 b5 a4 b9 b6 f6 b6 f1 d1 ba c6 94 b5 b5
       -0.9665307 0.3514657 0.13179964 0.13179964 -0.615065 0.3075325 0.17573285 2.9874585 0.17573285 2.7677925 1.3619297 0.3514657 0.87866426 -1.3179964 0.13179964 0.13179964
000080 aa ca b4 a7 88 c6 b1 be b0 d7 a8 c7 b3 cf b8 ad
       -0.3514657 1.0543971 0.087866426 -0.48326534 -1.8451949 0.87866426 -0.043933213 0.52719855 -0.087866426 1.6255288 -0.43933213 0.92259747 0.043933213 1.2740631 0.26359928 -0.21966606

mnas_v4_a_035_1/feature_network/lead_cell_0/op_0/project_0/Conv2D_Fold;mnas_v4_a_035_1/feature_network/lead_cell_0/op_0/project_0/weights_quant/FakeQuantWithMinMaxVars u1 [8, 1, 1, 16] scale=0.011899093 zero_point=122
000000 78 b4 8e c1 a1 96 95 54 a1 6f 81 45 7d 48 b5 79
       -0.023798186 0.6901474 0.23798186 0.84483564 0.46406463 0.33317462 0.3212755 -0.45216554 0.46406463 -0.13089003 0.083293654 -0.63065195 0.03569728 -0.59495467 0.7020465 -0.011899093
000010 a5 b5 61 8b 74 1d 6e 89 2d 80 58 82 6a 71 af a4
       0.511661 0.7020465 -0.29747733 0.20228459 -0.07139456 -1.1066157 -0.14278913 0.17848639 -0.9162302 0.07139456 -0.40456918 0.095192745 -0.19038549 -0.10709184 0.63065195 0.4997619
000020 cc 31 79 79 78 ae 79 83 6f a2 44 7a 68 6e b1 39
       0.97572565 -0.8686338 -0.011899093 -0.011899093 -0.023798186 0.61875284 -0.011899093 0.10709184 -0.13089003 0.4759637 -0.642551 0.0 -0.21418367 -0.14278913 0.6544501 -0.7734411
000030 01 66 48 86 85 69 7c 84 79 8e c5 74 62 93 b6 60
       -1.4397902 -0.23798186 -0.59495467 0.14278913 0.13089003 -0.20228459 0.023798186 0.11899093 -0.011899093 0.23798186 0.892432 -0.07139456 -0.28557825 0.29747733 0.71394557 -0.30937642
000040 8c 66 78 52 b8 59 9e 5f 6d ad 70 10 5f 8f 5c 81
       0.21418367 -0.23798186 -0.023798186 -0.4759637 0.7377438 -0.39267007 0.42836735 -0.3212755 -0.15468821 0.6068537 -0.11899093 -1.2613039 -0.3212755 0.24988095 -0.35697278 0.083293654
000050 9a b7 85 6d 74 29 6e 95 f0 70 6e 81 67 7b 72 2a
       0.38077098 0.7258447 0.13089003 -0.15468821 -0.07139456 -0.96382654 -0.14278913 0.3212755 1.404093 -0.11899093 -0.14278913 0.083293654 -0.22608277 0.011899093 -0.095192745 -0.9519274
000060 6d 4e ff 69 76 65 72 75 a9 73 7b 7f 75 8f ac 8f
       -0.15468821 -0.5235601 1.5825794 -0.20228459 -0.047596373 -0.24988095 -0.095192745 -0.059495464 0.5592574 -0.083293654 0.011899093 0.059495464 -0.059495464 0.24988095 0.59495467 0.24988095
000070 93 41 07 a0 7b 86 7a 6b d5 6e 6e 7d 88 7e 76 f4
       0.29747733 -0.6782483 -1.3683957 0.45216554 0.011899093 0.14278913 0.0 -0.17848639 1.0828174 -0.14278913 -0.14278913 0.03569728 0.16658731 0.047596373 -0.047596373 1.4516894

mnas_v4_a_035_1/feature_network/lead_cell_1/op_0/expand_0/Conv2D_Fold;mnas_v4_a_035_1/feature_network/lead_cell_1/op_0/expand_0/weights_quant/FakeQuantWithMinMaxVars u1 [24, 1, 1, 8] scale=0.004962715 zero_point=131
000000 81 7c 60 9f 82 72 95 88 90 46 b3 86 a4 53 88 91
       -0.00992543 -0.034739003 -0.17369501 0.13895601 -0.004962715 -0.08436615 0.08932887 0.024813574 0.06451529 -0.3027256 0.23821032 0.014888145 0.16376959 -0.23821032 0.024813574 0.069478005
000010 8c 7e 82 8f 83 95 7f af 7f 72 55 ef 79 67 9a 70
       0.044664435 -0.024813574 -0.004962715 0.05955258 0.0 0.08932887 -0.01985086 0.21835946 -0.01985086 -0.08436615 -0.22828488 0.5359732 -0.049627148 -0.13895601 0.11414244 -0.09429158
000020 89 78 81 6f 84 85 b9 5a 5c d1 46 79 3e c7 82 73
       0.02977629 -0.054589864 -0.00992543 -0.099254295 0.004962715 0.00992543 0.2679866 -0.2034713 -0.19354588 0.38709176 -0.3027256 -0.049627148 -0.3424273 0.3374646 -0.004962715 -0.07940344
000030 7d 8e 81 93 85 81 65 a8 b5 a6 73 a0 ff 9b 82 78
       -0.02977629 0.054589864 -0.00992543 0.07940344 0.00992543 -0.00992543 -0.14888145 0.18362045 0.24813575 0.17369501 -0.07940344 0.14391874 0.61537665 0.11910516 -0.004962715 -0.054589864
000040 76 78 9e 9d 82 9c 58 76 c2 93 68 72 c3 94 6d 76
       -0.06451529 -0.054589864 0.1339933 0.12903059 -0.004962715 0.12406787 -0.21339674 -0.06451529 0.31265104 0.07940344 -0.1339933 -0.08436615 0.31761375 0.08436615 -0.10917973 -0.06451529
000050 ad 27 73 87 74 ef ad bf 5e 59 b2 88 64 65 8f 90
       0.20843403 -0.45656976 -0.07940344 0.01985086 -0.074440725 0.5359732 0.20843403 0.2977629 -0.18362045 -0.20843403 0.2332476 0.024813574 -0.15384416 -0.14888145 0.05955258 0.06451529
000060 72 64 30 ed 80 58 96 7a 84 8a 7c 82 83 7a 82 94
       -0.08436615 -0.15384416 -0.41190532 0.52604777 -0.014888145 -0.21339674 0.09429158 -0.044664435 0.004962715 0.034739003 -0.034739003 -0.004962715 0.0 -0.044664435 -0.004962715 0.08436615
000070 2c 48 4d 48 ab 95 51 73 a9 a4 b3 6d 71 8d 82 8c
       -0.4317562 -0.2928002 -0.2679866 -0.2928002 0.19850859 0.08932887 -0.24813575 -0.07940344 0.18858317 0.16376959 0.23821032 -0.10917973 -0.08932887 0.049627148 -0.004962715 0.044664435
000080 87 73 7a 8f 80 92 87 92 63 c7 5c 8a 61 b8 8b 7a
       0.01985086 -0.07940344 -0.044664435 0.05955258 -0.014888145 0.074440725 0.01985086 0.074440725 -0.15880688 0.3374646 -0.19354588 0.034739003 -0.1687323 0.26302388 0.03970172 -0.044664435
000090 58 d6 8d 7d 8e 12 50 44 9a 6e 62 9c 71 7d 76 84
       -0.21339674 0.41190532 0.049627148 -0.02977629 0.054589864 -0.5607868 -0.25309846 -0.31265104 0.11414244 -0.104217015 -0.16376959 0.12406787 -0.08932887 -0.02977629 -0.06451529 0.004962715
0000a0 41 a0 b1 93 af a5 a2 94 d7 97 a9 4c 55 83 5d 7c
       -0.32753918 0.14391874 0.22828488 0.07940344 0.21835946 0.1687323 0.15384416 0.08436615 0.41686806 0.099254295 0.18858317 -0.2729493 -0.22828488 0.0 -0.18858317 -0.034739003
0000b0 7e 72 93 86 84 98 84 5d 34 6e 95 76 01 77 8d 8e
       -0.024813574 -0.08436615 0.07940344 0.014888145 0.004962715 0.104217015 0.004962715 -0.18858317 -0.39205447 -0.104217015 0.08932887 -0.06451529 -0.6451529 -0.05955258 0.049627148 0.054589864

mnas_v4_a_035_1/feature_network/lead_cell_1/op_0/depthwise_0/depthwise_Fold;mnas_v4_a_035_1/feature_network/lead_cell_1/op_0/depthwise_0/weights_quant/FakeQuantWithMinMaxVars u1 [1, 3, 3, 24] scale=0.048644524 zero_point=162
000000 aa 9e b4 a2 9d 96 91 a5 a2 a8 a3 a2 9b 9b ac 98
       0.3891562 -0.1945781 0.8756014 0.0 -0.24322262 -0.5837343 -0.8269569 0.14593357 0.0 0.29186714 0.048644524 0.0 -0.34051168 -0.34051168 0.48644525 -0.48644525
000010 aa a8 a1 af a3 a8 a3 9a b2 a3 7c aa a6 a0 95 a2
       0.3891562 0.29186714 -0.048644524 0.6323788 0.048644524 0.29186714 0.048644524 -0.3891562 0.7783124 0.048644524 -1.8484919 0.3891562 0.1945781 -0.09728905 -0.6323788 0.0
000020 a5 a2 a3 a3 98 8f a3 9a 9a a6 a1 9b a9 a8 92 a1
       0.14593357 0.0 0.048644524 0.048644524 -0.48644525 -0.92424595 0.048644524 -0.3891562 -0.3891562 0.1945781 -0.048644524 -0.34051168 0.34051168 0.29186714 -0.7783124 -0.048644524
000030 ab 9f b6 a8 a0 9f 85 a2 a5 a2 a3 a3 9d ba 95 a1
       0.4378007 -0.14593357 0.9728905 0.29186714 -0.09728905 -0.14593357 -1.4106911 0.0 0.14593357 0.0 0.048644524 0.048644524 -0.24322262 1.1674685 -0.6323788 -0.048644524
000040 a2 9f a2 97 a2 a1 a5 a0 8d a9 97 93 81 ae 60 9f
       0.0 -0.14593357 0.0 -0.5350898 0.0 -0.048644524 0.14593357 -0.09728905 -1.021535 0.34051168 -0.5350898 -0.72966784 -1.6052693 0.5837343 -3.2105386 -0.14593357
000050 85 9d a4 9f 9c 62 b6 8e cf 99 9f ba 95 af 9f a9
       -1.4106911 -0.24322262 0.09728905 -0.14593357 -0.29186714 -3.1132495 0.9728905 -0.9728905 2.1890035 -0.4378007 -0.14593357 1.1674685 -0.6323788 0.6323788 -0.14593357 0.34051168
000060 7c a6 bd a4 c4 a7 b8 a3 c6 a0 a6 a1 a5 b1 a2 a4
       -1.8484919 0.1945781 1.3134022 0.09728905 1.6539139 0.24322262 1.0701796 0.048644524 1.7512028 -0.09728905 0.1945781 -0.048644524 0.14593357 0.72966784 0.0 0.09728905
000070 4f a0 9e 9e 9e a5 6e a4 8b a1 92 ac a6 a0 d8 a2
       -4.0374956 -0.09728905 -0.1945781 -0.1945781 -0.1945781 0.14593357 -2.5295153 0.09728905 -1.118824 -0.048644524 -0.7783124 0.48644525 0.1945781 -0.09728905 2.6268044 0.0
000080 9f a4 a4 a2 a7 ce 8e b5 c8 a6 a0 8d ac 94 ca a1
       -0.14593357 0.09728905 0.09728905 0.0 0.24322262 2.1403592 -0.9728905 0.92424595 1.8484919 0.1945781 -0.09728905 -1.021535 0.48644525 -0.68102336 1.945781 -0.048644524
000090 ae b2 9a 9a 8a b6 f6 95 7d 92 a4 9c a7 01 ac 9a
       0.5837343 0.7783124 -0.3891562 -0.3891562 -1.1674685 0.9728905 4.08614 -0.6323788 -1.7998474 -0.7783124 0.09728905 -0.29186714 0.24322262 -7.8317685 0.48644525 -0.3891562
0000a0 99 94 a0 9f 98 a4 a1 b0 b6 a4 ae 9d bd a6 95 a2
       -0.4378007 -0.68102336 -0.09728905 -0.14593357 -0.48644525 0.09728905 -0.048644524 0.68102336 0.9728905 0.09728905 0.5837343 -0.24322262 1.3134022 0.1945781 -0.6323788 0.0
0000b0 c7 a4 a5 a1 ae e2 a1 ad b4 9f 9e a8 9a 9c 87 a4
       1.7998474 0.09728905 0.14593357 -0.048644524 0.5837343 3.1132495 -0.048644524 0.5350898 0.8756014 -0.14593357 -0.1945781 0.29186714 -0.3891562 -0.29186714 -1.3134022 0.09728905
0000c0 ae 9b 9f a4 a1 95 88 a5 a1 a7 a3 a2 a9 ff 99 a9
       0.5837343 -0.34051168 -0.14593357 0.09728905 -0.048644524 -0.6323788 -1.2647576 0.14593357 -0.048644524 0.24322262 0.048644524 0.0 0.34051168 4.5239406 -0.4378007 0.34051168
0000d0 99 a7 a0 a1 a3 9c bc 9a
       -0.4378007 0.24322262 -0.09728905 -0.048644524 0.048644524 -0.29186714 1.2647576 -0.3891562

mnas_v4_a_035_1/feature_network/lead_cell_1/op_0/project_0/Conv2D_Fold;mnas_v4_a_035_1/feature_network/lead_cell_1/op_0/project_0/weights_quant/FakeQuantWithMinMaxVars u1 [8, 1, 1, 24] scale=0.014618333 zero_point=125
000000 7b ba 7c 79 7e 57 7c 2a 7b 3c 7f c1 91 7e 69 75
       -0.029236667 0.8917183 -0.014618333 -0.058473334 0.014618333 -0.5554967 -0.014618333 -1.2133217 -0.029236667 -0.9501917 0.029236667 0.9940467 0.29236668 0.014618333 -0.29236668 -0.11694667
000010 7c a6 7a 83 95 8a 7d 0a 72 80 58 86 f4 7c 7e 7d
       -0.014618333 0.59935164 -0.043855 0.08771 0.35084 0.19003834 0.0 -1.6811084 -0.16080166 0.043855 -0.54087836 0.131565 1.7395817 -0.014618333 0.014618333 0.0
000020 ff 7c 57 80 83 98 77 7d 57 81 97 6d 7e 82 f1 7d
       1.9003834 -0.014618333 -0.5554967 0.043855 0.08771 0.394695 -0.08771 0.0 -0.5554967 0.058473334 0.38007668 -0.23389333 0.014618333 0.07309167 1.6957266 0.0
000030 7d 45 7c 7f 7d c6 7d 6e 7f 61 7c a9 77 7d 83 81
       0.0 -0.81862664 -0.014618333 0.029236667 0.0 1.0671383 0.0 -0.219275 0.029236667 -0.40931332 -0.014618333 0.64320666 -0.08771 0.0 0.08771 0.058473334
000040 7d 42 7c 7c 69 77 7d 60 78 80 88 77 47 7d 6d 77
       0.0 -0.86248165 -0.014618333 -0.014618333 -0.29236668 -0.08771 0.0 -0.42393166 -0.07309167 0.043855 0.16080166 -0.08771 -0.78939 0.0 -0.23389333 -0.08771
000050 c9 7c 77 81 80 44 7e 84 86 7f 82 7d 83 79 51 79
       1.1109934 -0.014618333 -0.08771 0.058473334 0.043855 -0.833245 0.014618333 0.10232833 0.131565 0.029236667 0.07309167 0.0 0.08771 -0.058473334 -0.64320666 -0.058473334
000060 4f 82 7b 7f 71 74 7c 67 6b 94 0e 7c 4a 81 b0 a1
       -0.67244333 0.07309167 -0.029236667 0.029236667 -0.17542 -0.131565 -0.014618333 -0.32160333 -0.26313 0.33622167 -1.622635 -0.014618333 -0.745535 0.058473334 0.745535 0.52626
000070 73 80 d9 80 51 50 70 73 6b 81 91 ee 67 7d 6c 8f
       -0.14618334 0.043855 1.3448867 0.043855 -0.64320666 -0.657825 -0.19003834 -0.14618334 -0.26313 0.058473334 0.29236668 1.6518717 -0.32160333 0.0 -0.24851167 0.26313
000080 70 63 4a 81 bb 66 83 3a 90 85 a4 19 58 ad 6f 7e
       -0.19003834 -0.38007668 -0.745535 0.058473334 0.90633667 -0.33622167 0.08771 -0.97942835 0.27774835 0.11694667 0.57011503 -1.4618334 -0.54087836 0.70168 -0.20465666 0.014618333
000090 98 7f 2e 81 7d 7d 30 7f 70 78 9e 7b 89 7b 76 6d
       0.394695 0.029236667 -1.1548483 0.058473334 0.0 0.0 -1.1256117 0.029236667 -0.19003834 -0.07309167 0.482405 -0.029236667 0.17542 -0.029236667 -0.10232833 -0.23389333
0000a0 2b 7c 5d 6b 84 89 75 7e 9d 89 7e af 7d 6b 7c 63
       -1.1987033 -0.014618333 -0.46778667 -0.26313 0.10232833 0.17542 -0.11694667 0.014618333 0.46778667 0.17542 0.014618333 0.7309167 0.0 -0.26313 -0.014618333 -0.38007668
0000b0 8d 9a af 81 31 7d d9 a1 82 8e 49 55 01 47 80 6c
       0.23389333 0.42393166 0.7309167 0.058473334 -1.1109934 0.0 1.3448867 0.52626 0.07309167 0.24851167 -0.76015335 -0.58473337 -1.8126733 -0.78939 0.043855 -0.24851167

mnas_v4_a_035_1/feature_network/cell_2/op_0/expand_0/Conv2D_Fold;mnas_v4_a_035_1/feature_network/cell_2/op_0/expand_0/weights_quant/FakeQuantWithMinMaxVars u1 [24, 1, 1, 8] scale=0.0024505237 zero_point=125
000000 77 8d 7e ab 85 74 7d 9c 8b 7b 7f 82 74 82 80 63
       -0.0147031415 0.03920838 0.0024505237 0.11272409 0.01960419 -0.022054713 0.0 0.07596623 0.03430733 -0.0049010473 0.0049010473 0.012252619 -0.022054713 0.012252619 0.0073515708 -0.06371362
000010 79 a7 7d c6 6f 79 71 84 02 6b 9f 8a 6c 7e 78 69
       -0.009802095 0.10292199 0.0 0.17888823 -0.03430733 -0.009802095 -0.029406283 0.017153665 -0.3014144 -0.044109426 0.0833178 0.03185681 -0.0416589 0.0024505237 -0.012252619 -0.049010474
000020 8a 99 78 7d d9 9b 74 38 7b 7c 7e 73 86 7b 7b 91
       0.03185681 0.06861466 -0.012252619 0.0 0.22544818 0.07351571 -0.022054713 -0.16908613 -0.0049010473 -0.0024505237 0.0024505237 -0.024505237 0.022054713 -0.0049010473 -0.0049010473 0.049010474
000030 8b 5d 7a 2d 7b 86 81 5e 7c 8b 7e 96 80 7c 78 81
       0.03430733 -0.07841676 -0.0073515708 -0.1960419 -0.0049010473 0.022054713 0.009802095 -0.07596623 -0.0024505237 0.03430733 0.0024505237 0.06126309 0.0073515708 -0.0024505237 -0.012252619 0.009802095
000040 81 57 7c 7a 52 9c 01 7f 78 7a 79 86 91 82 8e a6
       0.009802095 -0.0931199 -0.0024505237 -0.0073515708 -0.10537252 0.07596623 -0.30386493 0.0049010473 -0.012252619 -0.0073515708 -0.009802095 0.022054713 0.049010474 0.012252619 0.0416589 0.10047147
000050 85 1b 76 fe c8 54 a5 55 84 7f 7b 8b 75 78 7a 6d
       0.01960419 -0.24015132 -0.017153665 0.31611755 0.18378927 -0.10047147 0.09802095 -0.09802095 0.017153665 0.0049010473 -0.0049010473 0.03430733 -0.01960419 -0.012252619 -0.0073515708 -0.03920838
000060 78 80 84 77 68 e7 97 91 7a 71 7a 51 95 78 80 97
       -0.012252619 0.0073515708 0.017153665 -0.0147031415 -0.051460996 0.25975552 0.06371362 0.049010474 -0.0073515708 -0.029406283 -0.0073515708 -0.107823044 0.058812566 -0.012252619 0.0073515708 0.06371362
000070 7e ab 7f d9 75 68 6d b2 7f 71 7b 76 63 85 21 83
       0.0024505237 0.11272409 0.0049010473 0.22544818 -0.01960419 -0.051460996 -0.03920838 0.12987776 0.0049010473 -0.029406283 -0.0049010473 -0.017153665 -0.06371362 0.01960419 -0.22544818 0.0147031415
000080 7f 94 7d b8 70 80 76 7d 7c 7d 7c 7f 77 7c 7c 73
       0.0049010473 0.056362044 0.0 0.1445809 -0.03185681 0.0073515708 -0.017153665 0.0 -0.0024505237 0.0 -0.0024505237 0.0049010473 -0.0147031415 -0.0024505237 -0.0024505237 -0.024505237
000090 81 7a 7b 7e 98 22 74 6b e1 6f 53 83 70 78 7b a3
       0.009802095 -0.0073515708 -0.0049010473 0.0024505237 0.066164136 -0.22299765 -0.022054713 -0.044109426 0.24505237 -0.03430733 -0.10292199 0.0147031415 -0.03185681 -0.012252619 -0.0049010473 0.0931199
0000a0 7f 05 7f b3 a3 84 bb 71 83 3e 74 b3 af 14 86 48
       0.0049010473 -0.29406285 0.0049010473 0.13232827 0.0931199 0.017153665 0.15193246 -0.029406283 0.0147031415 -0.15438299 -0.022054713 0.13232827 0.12252618 -0.257305 0.022054713 -0.12987776
0000b0 7a 7d 7b 75 6c 83 81 5d 7b 6d 7e 7c 37 6c 8b a4
       -0.0073515708 0.0 -0.0049010473 -0.01960419 -0.0416589 0.0147031415 0.009802095 -0.07841676 -0.0049010473 -0.03920838 0.0024505237 -0.0024505237 -0.17153665 -0.0416589 0.03430733 0.09557042

mnas_v4_a_035_1/feature_network/cell_2/op_0/depthwise_0/depthwise_Fold;mnas_v4_a_035_1/feature_network/cell_2/op_0/depthwise_0/weights_quant/FakeQuantWithMinMaxVars u1 [1, 3, 3, 24] scale=0.038718782 zero_point=146
000000 8e 9d 94 92 94 95 81 91 8e 91 8d 8c 8f 98 90 97
       -0.15487513 0.4259066 0.077437565 0.0 0.077437565 0.11615635 -0.6582193 -0.038718782 -0.15487513 -0.038718782 -0.19359392 -0.2323127 -0.11615635 0.2323127 -0.077437565 0.19359392
000010 95 a2 93 81 93 95 87 97 9a bb 8d 7d ac 7a ba 90
       0.11615635 0.6195005 0.038718782 -0.6582193 0.038718782 0.11615635 -0.4259066 0.19359392 0.30975026 1.58747 -0.19359392 -0.81309444 1.0066884 -0.9292508 1.5487514 -0.077437565
000020 8d a3 b2 82 8b b5 93 9e bf a5 99 81 90 93 8c 87
       -0.19359392 0.6582193 1.239001 -0.6195005 -0.27103147 1.3551574 0.038718782 0.4646254 1.7423452 0.73565686 0.27103147 -0.6582193 -0.077437565 0.038718782 -0.2323127 -0.4259066
000030 91 a0 92 9e 97 9d 95 90 92 8f 92 9f 92 6b 95 96
       -0.038718782 0.54206294 0.0 0.4646254 0.19359392 0.4259066 0.11615635 -0.077437565 0.0 -0.11615635 0.0 0.5033442 0.0 -1.5100325 0.11615635 0.15487513
000040 8e a8 92 a9 93 99 a7 98 78 81 8c 95 8a a5 a9 87
       -0.15487513 0.8518132 0.0 0.890532 0.038718782 0.27103147 0.81309444 0.2323127 -1.0066884 -0.6582193 -0.2323127 0.11615635 -0.30975026 0.73565686 0.890532 -0.4259066
000050 86 89 9b 9e 96 8b 8a 98 90 a0 91 84 91 93 80 95
       -0.4646254 -0.34846905 0.34846905 0.4646254 0.15487513 -0.27103147 -0.30975026 0.2323127 -0.077437565 0.54206294 -0.038718782 -0.54206294 -0.038718782 0.038718782 -0.6969381 0.11615635
000060 b7 4d 3c 79 54 91 5f ff a5 95 54 4a b6 73 90 54
       1.4325949 -2.671596 -3.3298154 -0.96796954 -2.4005644 -0.038718782 -1.9746579 4.2203474 0.73565686 0.11615635 -2.4005644 -2.7877524 1.3938762 -1.2002822 -0.077437565 -2.4005644
000070 43 01 bc 82 6a 7d 91 38 8a 77 8d a8 85 c9 90 7a
       -3.0587838 -5.6142235 1.6261889 -0.6195005 -1.5487514 -0.81309444 -0.038718782 -3.4846904 -0.30975026 -1.0454072 -0.19359392 0.8518132 -0.5033442 2.129533 -0.077437565 -0.9292508
000080 88 9d a3 d0 8f b7 9c 9e 97 93 8f b7 97 92 ac 92
       -0.38718784 0.4259066 0.6582193 2.4005644 -0.11615635 1.4325949 0.38718784 0.4646254 0.19359392 0.038718782 -0.11615635 1.4325949 0.19359392 0.0 1.0066884 0.0
000090 8b 97 92 90 99 8a 90 90 8c 95 96 8f 8b 93 8d 98
       -0.27103147 0.19359392 0.0 -0.077437565 0.27103147 -0.30975026 -0.077437565 -0.077437565 -0.2323127 0.11615635 0.15487513 -0.11615635 -0.27103147 0.038718782 -0.19359392 0.2323127
0000a0 91 a4 94 82 95 98 89 96 9d a8 8e 80 b3 78 9c 92
       -0.038718782 0.6969381 0.077437565 -0.6195005 0.11615635 0.2323127 -0.34846905 0.15487513 0.4259066 0.8518132 -0.15487513 -0.6969381 1.2777199 -1.0066884 0.38718784 0.0
0000b0 89 a1 98 82 7a 8d 99 a1 ad 9a 95 85 90 92 8d 8b
       -0.34846905 0.58078176 0.2323127 -0.6195005 -0.9292508 -0.19359392 0.27103147 0.58078176 1.0454072 0.30975026 0.11615635 -0.5033442 -0.077437565 0.0 -0.19359392 -0.27103147
0000c0 91 96 94 9e 9d 8a 91 91 90 93 91 a4 93 96 94 94
       -0.038718782 0.15487513 0.077437565 0.4646254 0.4259066 -0.30975026 -0.038718782 -0.038718782 -0.077437565 0.038718782 -0.038718782 0.6969381 0.038718782 0.15487513 0.077437565 0.077437565
0000d0 92 a2 93 a7 95 96 9c 98
       0.0 0.6195005 0.038718782 0.81309444 0.11615635 0.15487513 0.38718784 0.2323127

mnas_v4_a_035_1/feature_network/cell_2/op_0/project_0/Conv2D_Fold;mnas_v4_a_035_1/feature_network/cell_2/op_0/project_0/weights_quant/FakeQuantWithMinMaxVars u1 [8, 1, 1, 24] scale=0.027310362 zero_point=153
000000 99 9c 99 94 99 95 99 9a 9a 97 98 9c 98 98 9c 99
       0.0 0.081931084 0.0 -0.13655181 0.0 -0.10924145 0.0 0.027310362 0.027310362 -0.054620724 -0.027310362 0.081931084 -0.027310362 -0.027310362 0.081931084 0.0
000010 99 9c 98 9a 9a 95 99 98 cb 96 d5 ad 93 a5 91 70
       0.0 0.081931084 -0.027310362 0.027310362 0.027310362 -0.10924145 0.0 -0.027310362 1.3655181 -0.081931084 1.6386217 0.54620725 -0.16386217 0.32772434 -0.2184829 -1.1197249
000020 b5 9b 9b bb 8f 93 81 84 91 95 88 a1 d5 9b 96 ad
       0.76469016 0.054620724 0.054620724 0.9285523 -0.27310362 -0.16386217 -0.6554487 -0.5735176 -0.2184829 -0.10924145 -0.46427616 0.2184829 1.6386217 0.054620724 -0.081931084 0.54620725
000030 99 97 99 98 99 9d 99 98 99 9a 99 96 98 9a 97 98
       0.0 -0.054620724 0.0 -0.027310362 0.0 0.10924145 0.0 -0.027310362 0.0 0.027310362 0.0 -0.081931084 -0.027310362 0.027310362 -0.054620724 -0.027310362
000040 98 99 99 99 98 9a 9a 99 b7 8d 92 b4 96 83 92 01
       -0.027310362 0.0 0.0 0.0 -0.027310362 0.027310362 0.027310362 0.0 0.81931084 -0.32772434 -0.19117254 0.7373798 -0.081931084 -0.600828 -0.19117254 -4.151175
000050 8d 49 8d d2 74 96 7c ac 84 cf ce c1 6c a3 ff 8a
       -0.32772434 -2.184829 -0.32772434 1.5566907 -1.0104834 -0.081931084 -0.7920005 0.5188969 -0.5735176 1.4747596 1.4474492 1.0924145 -1.2289662 0.27310362 2.785657 -0.40965542
000060 94 7e 8e 9c 81 b4 91 9e 97 97 8b 8b 8b 94 9c 9a
       -0.13655181 -0.7373798 -0.300414 0.081931084 -0.6554487 0.7373798 -0.2184829 0.13655181 -0.054620724 -0.054620724 -0.38234508 -0.38234508 -0.38234508 -0.13655181 0.081931084 0.027310362
000070 91 88 9d 9e 94 98 a2 c9 9b 82 97 99 88 8b b8 a1
       -0.2184829 -0.46427616 0.10924145 0.13655181 -0.13655181 -0.027310362 0.24579325 1.3108974 0.054620724 -0.6281383 -0.054620724 0.0 -0.46427616 -0.38234508 0.8466212 0.2184829
000080 9d 7b b3 a5 b0 bb 99 8c b6 9a bd 9d 87 bb 92 a3
       0.10924145 -0.81931084 0.7100694 0.32772434 0.6281383 0.9285523 0.0 -0.3550347 0.7920005 0.027310362 0.983173 0.10924145 -0.4915865 0.9285523 -0.19117254 0.27310362
000090 9b b3 96 9a a1 91 7b 9f b4 9a 8f a2 97 81 9c 73
       0.054620724 0.7100694 -0.081931084 0.027310362 0.2184829 -0.2184829 -0.81931084 0.16386217 0.7373798 0.027310362 -0.27310362 0.24579325 -0.054620724 -0.6554487 0.081931084 -1.0377938
0000a0 78 98 76 99 86 c4 99 9f a1 98 9e 9a a8 aa 9e 91
       -0.90124196 -0.027310362 -0.9558627 0.0 -0.5188969 1.1743456 0.0 0.16386217 0.2184829 -0.027310362 0.13655181 0.027310362 0.40965542 0.46427616 0.13655181 -0.2184829
0000b0 99 9e a1 97 a2 9f 89 98 9c 78 9a 9b 96 aa 9d 81
       0.0 0.13655181 0.2184829 -0.054620724 0.24579325 0.16386217 -0.4369658 -0.027310362 0.081931084 -0.90124196 0.027310362 0.054620724 -0.081931084 0.46427616 0.10924145 -0.6554487

mnas_v4_a_035_1/feature_network/cell_3/op_0/expand_0/Conv2D_Fold;mnas_v4_a_035_1/feature_network/cell_3/op_0/expand_0/weights_quant/FakeQuantWithMinMaxVars u1 [24, 1, 1, 8] scale=0.0031907184 zero_point=113
000000 4c 75 72 67 83 6a 77 96 01 7b 77 79 6b 7d 5b 56
       -0.11805658 0.012762873 0.0031907184 -0.031907182 0.05743293 -0.022335028 0.01914431 0.11805658 -0.35736045 0.031907182 0.01914431 0.025525747 -0.01914431 0.03828862 -0.0701958 -0.086149395
000010 74 c2 70 76 5c 6d 53 72 6d 72 71 69 75 a5 a6 49
       0.009572155 0.25844818 -0.0031907184 0.015953591 -0.06700508 -0.012762873 -0.09572155 0.0031907184 -0.012762873 0.0031907184 0.0 -0.025525747 0.012762873 0.16591735 0.16910808 -0.12762873
000020 77 67 70 70 2a 57 79 8d 6d 74 6e 69 74 81 80 9b
       0.01914431 -0.031907182 -0.0031907184 -0.0031907184 -0.226541 -0.082958676 0.025525747 0.08934011 -0.012762873 0.009572155 -0.009572155 -0.025525747 0.009572155 0.051051494 0.047860775 0.13401017
000030 64 84 74 77 b2 7f 6a 99 75 7b 70 71 34 6b 51 88
       -0.041479338 0.06062365 0.009572155 0.01914431 0.20739669 0.044670057 -0.022335028 0.12762873 0.012762873 0.031907182 -0.0031907184 0.0 -0.19463383 -0.01914431 -0.10210299 0.07338652
000040 7a b9 71 70 73 69 77 62 71 98 72 6f 4f 47 a4 7a
       0.028716465 0.22973172 0.0 -0.0031907184 0.0063814367 -0.025525747 0.01914431 -0.047860775 0.0 0.12443802 0.0031907184 -0.0063814367 -0.108484425 -0.13401017 0.16272664 0.028716465
000050 71 40 71 26 7a 55 79 5b 77 7d 76 75 a1 09 e2 53
       0.0 -0.1563452 0.0 -0.23930387 0.028716465 -0.08934011 0.025525747 -0.0701958 0.01914431 0.03828862 0.015953591 0.012762873 0.15315448 -0.3318347 0.36055118 -0.09572155
000060 76 6d 75 6e 51 5e 81 78 73 79 71 75 6b 75 6e 6b
       0.015953591 -0.012762873 0.012762873 -0.009572155 -0.10210299 -0.06062365 0.051051494 0.022335028 0.0063814367 0.025525747 0.0 0.012762873 -0.01914431 0.012762873 -0.009572155 -0.01914431
000070 65 67 71 6c 6c 7b 7a 53 0c 70 58 71 67 73 6e 6d
       -0.03828862 -0.031907182 0.0 -0.015953591 -0.015953591 0.031907182 0.028716465 -0.09572155 -0.32226256 -0.0031907184 -0.07976796 0.0 -0.031907182 0.0063814367 -0.009572155 -0.012762873
000080 75 ac 73 86 66 7a 4d 73 72 9a 71 72 59 7b 4c 6c
       0.012762873 0.18825239 0.0063814367 0.06700508 -0.0350979 0.028716465 -0.11486586 0.0063814367 0.0031907184 0.13081945 0.0 0.0031907184 -0.07657724 0.031907182 -0.11805658 -0.015953591
000090 6b 7c 75 69 bb 7c 74 8e 76 65 70 75 86 8d 5a 14
       -0.01914431 0.0350979 0.012762873 -0.025525747 0.23611316 0.0350979 0.009572155 0.09253083 0.015953591 -0.03828862 -0.0031907184 0.012762873 0.06700508 0.08934011 -0.07338652 -0.2967368
0000a0 74 66 71 79 6f 72 7b 62 78 5a 6c 43 7e 40 66 60
       0.009572155 -0.0350979 0.0 0.025525747 -0.0063814367 0.0031907184 0.031907182 -0.047860775 0.022335028 -0.07338652 -0.015953591 -0.14677304 0.041479338 -0.1563452 -0.0350979 -0.054242212
0000b0 70 7e 73 65 89 88 ff 71 70 af 71 6e 60 68 62 71
       -0.0031907184 0.041479338 0.0063814367 -0.03828862 0.07657724 0.07338652 0.453082 0.0 -0.0031907184 0.19782454 0.0 -0.009572155 -0.054242212 -0.028716465 -0.047860775 0.0

mnas_v4_a_035_1/feature_network/cell_3/op_0/depthwise_0/depthwise_Fold;mnas_v4_a_035_1/feature_network/cell_3/op_0/depthwise_0/weights_quant/FakeQuantWithMinMaxVars u1 [1, 3, 3, 24] scale=0.029567804 zero_point=139
000000 93 92 7b 69 86 97 8a 8d 94 7f 97 c6 86 b6 c9 97
       0.23654243 0.20697463 -0.47308487 -1.0053053 -0.14783902 0.35481364 -0.029567804 0.05913561 0.26611024 -0.35481364 0.35481364 1.7445004 -0.14783902 1.2714156 1.8332039 0.35481364
000010 a2 8f 95 8a b5 8d 88 8a 6e a0 69 84 8b 99 66 99
       0.6800595 0.11827122 0.29567805 -0.029567804 1.2418478 0.05913561 -0.08870341 -0.029567804 -0.85746634 0.6209239 -1.0053053 -0.20697463 0.0 0.41394925 -1.0940088 0.41394925
000020 a6 84 91 35 9a 49 69 87 a2 8a b1 75 68 a2 8e 88
       0.7983307 -0.20697463 0.17740682 -2.5428312 0.44351706 -1.951475 -1.0053053 -0.11827122 0.6800595 -0.029567804 1.1235765 -0.6504917 -1.0348731 0.6800595 0.08870341 -0.08870341
000030 9e 92 7a 89 80 6f 87 8b 85 81 87 a4 80 84 6e 79
       0.56178826 0.20697463 -0.50265265 -0.05913561 -0.32524586 -0.8278985 -0.11827122 0.0 -0.17740682 -0.29567805 -0.11827122 0.7391951 -0.32524586 -0.20697463 -0.85746634 -0.5322205
000040 9b 8e 94 83 85 94 90 8c 7b 74 90 8d 57 a8 a3 94
       0.47308487 0.08870341 0.26611024 -0.23654243 -0.17740682 0.26611024 0.14783902 0.029567804 -0.47308487 -0.6800595 0.14783902 0.05913561 -1.5375258 0.85746634 0.7096273 0.26611024
000050 7b 88 c1 5e 87 ff 56 a6 4d 94 82 89 ea 8d 87 8a
       -0.47308487 -0.08870341 1.5966614 -1.3305511 -0.11827122 3.4298654 -1.5670936 0.7983307 -1.8332039 0.26611024 -0.26611024 -0.05913561 2.8089414 0.05913561 -0.11827122 -0.029567804
000060 79 65 de d4 ff 48 b1 6e 8b 7c 8b 9a fd 01 d0 89
       -0.5322205 -1.1235765 2.4541278 2.1584496 3.4298654 -1.9810429 1.1235765 -0.85746634 0.0 -0.44351706 0.0 0.44351706 3.3707297 -4.080357 2.0401785 -0.05913561
000070 58 76 51 c1 38 b8 5b 4f a8 6d 7e 87 4a 9b 9f 98
       -1.507958 -0.6209239 -1.7149327 1.5966614 -2.4541278 1.3305511 -1.4192545 -1.7740682 0.85746634 -0.8870341 -0.38438144 -0.11827122 -1.9219073 0.47308487 0.5913561 0.38438144
000080 92 87 71 7e 86 b8 8b 7c 6c 9c 81 90 8b 9c 8a 88
       0.20697463 -0.11827122 -0.7687629 -0.38438144 -0.14783902 1.3305511 0.0 -0.44351706 -0.91660196 0.50265265 -0.29567805 0.14783902 0.0 0.50265265 -0.029567804 -0.08870341
000090 91 91 75 93 81 65 84 8f 97 70 a8 96 8f c0 86 98
       0.17740682 0.17740682 -0.6504917 0.23654243 -0.29567805 -1.1235765 -0.20697463 0.11827122 0.35481364 -0.7983307 0.85746634 0.32524586 0.11827122 1.5670936 -0.14783902 0.38438144
0000a0 9b 90 8b 85 b1 91 93 8f b8 9e 69 88 8c a6 75 97
       0.47308487 0.14783902 0.0 -0.17740682 1.1235765 0.17740682 0.23654243 0.11827122 1.3305511 0.56178826 -1.0053053 -0.08870341 0.029567804 0.7983307 -0.6504917 0.35481364
0000b0 9d 7b 88 76 80 4a 76 81 99 89 a3 83 78 62 88 78
       0.5322205 -0.47308487 -0.08870341 -0.6209239 -0.32524586 -1.9219073 -0.6209239 -0.29567805 0.41394925 -0.05913561 0.7096273 -0.23654243 -0.56178826 -1.2122799 -0.08870341 -0.56178826
0000c0 59 92 79 6a 7e 9d 87 8d 87 84 72 92 8b 83 a9 7b
       -1.4783902 0.20697463 -0.5322205 -0.9757375 -0.38438144 0.5322205 -0.11827122 0.05913561 -0.11827122 -0.20697463 -0.7391951 0.20697463 0.0 -0.23654243 0.8870341 -0.47308487
0000d0 95 90 8c 84 7d 7e 8b 8a
       0.29567805 0.14783902 0.029567804 -0.20697463 -0.41394925 -0.38438144 0.0 -0.029567804

mnas_v4_a_035_1/feature_network/cell_3/op_0/project_0/Conv2D_Fold;mnas_v4_a_035_1/feature_network/cell_3/op_0/project_0/weights_quant/FakeQuantWithMinMaxVars u1 [8, 1, 1, 24] scale=0.020386247 zero_point=129
000000 81 7d 83 84 82 7f 78 82 7f 82 7f 80 80 83 81 7b
       0.0 -0.08154499 0.040772494 0.06115874 0.020386247 -0.040772494 -0.18347622 0.020386247 -0.040772494 0.020386247 -0.040772494 -0.020386247 -0.020386247 0.040772494 0.0 -0.12231748
000010 80 81 82 89 80 82 82 81 6a 7a b3 90 86 8a 98 80
       -0.020386247 0.0 0.020386247 0.16308998 -0.020386247 0.020386247 0.020386247 0.0 -0.4688837 -0.14270373 1.0193124 0.3057937 0.10193124 0.18347622 0.4688837 -0.020386247
000020 34 66 88 80 8d 97 6e 90 79 01 80 7e 91 66 63 39
       -1.569741 -0.5504287 0.14270373 -0.020386247 0.24463496 0.44849744 -0.3873387 0.3057937 -0.16308998 -2.6094396 -0.020386247 -0.06115874 0.32617995 -0.5504287 -0.6115874 -1.4678098
000030 7f 80 80 81 80 82 84 81 82 80 82 82 82 80 82 7d
       -0.040772494 -0.020386247 -0.020386247 0.0 -0.020386247 0.020386247 0.06115874 0.0 0.020386247 -0.020386247 0.020386247 0.020386247 0.020386247 -0.020386247 0.020386247 -0.08154499
000040 81 81 81 7e 81 81 7f 81 80 71 75 6b 99 5c 4e 96
       0.0 0.0 0.0 -0.06115874 0.0 0.0 -0.040772494 0.0 -0.020386247 -0.32617995 -0.24463496 -0.44849744 0.4892699 -0.7542911 -1.0396986 0.4281112
000050 99 7a c7 59 70 fe 5b b5 46 4f 77 96 ee 9f a0 c2
       0.4892699 -0.14270373 1.4270372 -0.8154499 -0.3465662 2.548281 -0.7746774 1.0600848 -1.2027886 -1.0193124 -0.20386247 0.4281112 2.222101 0.6115874 0.6319737 1.325106
000060 82 71 6e 6e 60 75 93 e8 80 8a 89 6c af 80 7e 82
       0.020386247 -0.32617995 -0.3873387 -0.3873387 -0.6727461 -0.24463496 0.36695245 2.0997834 -0.020386247 0.18347622 0.16308998 -0.4281112 0.9377674 -0.020386247 -0.06115874 0.020386247
000070 7e 6d 6a 73 88 8e 86 7b a0 6d 83 a6 80 9e 72 ad
       -0.06115874 -0.40772495 -0.4688837 -0.28540745 0.14270373 0.2650212 0.10193124 -0.12231748 0.6319737 -0.40772495 0.040772494 0.7542911 -0.020386247 0.5912012 -0.3057937 0.8969949
000080 8e 9a 86 8e 94 89 9d 87 76 87 67 75 8e 60 57 8f
       0.2650212 0.5096562 0.10193124 0.2650212 0.3873387 0.16308998 0.5708149 0.12231748 -0.22424872 0.12231748 -0.5300424 -0.24463496 0.2650212 -0.6727461 -0.8562224 0.28540745
000090 66 94 73 97 88 86 89 ba 77 5d 7d 68 5f 8c 6f 83
       -0.5504287 0.3873387 -0.28540745 0.44849744 0.14270373 0.10193124 0.16308998 1.162016 -0.20386247 -0.7339049 -0.08154499 -0.5096562 -0.6931324 0.22424872 -0.36695245 0.040772494
0000a0 a1 9f 8f 7d 86 6a 41 9c 80 88 86 7a 92 8d af 4d
       0.6523599 0.6115874 0.28540745 -0.08154499 0.10193124 -0.4688837 -1.3047198 0.5504287 -0.020386247 0.14270373 0.10193124 -0.14270373 0.3465662 0.24463496 0.9377674 -1.0600848
0000b0 83 7b 8c 88 67 83 84 88 82 86 84 52 8b 78 6e 8c
       0.040772494 -0.12231748 0.22424872 0.14270373 -0.5300424 0.040772494 0.06115874 0.14270373 0.020386247 0.10193124 0.06115874 -0.9581536 0.20386247 -0.18347622 -0.3873387 0.22424872

mnas_v4_a_035_1/feature_network/lead_cell_4/op_0/expand_0/Conv2D_Fold;mnas_v4_a_035_1/feature_network/lead_cell_4/op_0/expand_0/weights_quant/FakeQuantWithMinMaxVars u1 [24, 1, 1, 8] scale=0.0075095925 zero_point=135
000000 f8 84 81 86 92 88 86 9c 01 88 94 87 77 87 86 70
       0.84858394 -0.022528777 -0.045057554 -0.0075095925 0.08260552 0.0075095925 -0.0075095925 0.15770145 -1.0062854 0.0075095925 0.097624704 0.0 -0.12015348 0.0 -0.0075095925 -0.17272063
000010 86 53 87 80 7e 84 a1 87 8d 8c 85 7b 6d a5 97 6e
       -0.0075095925 -0.39049882 0.0 -0.052567147 -0.06758633 -0.022528777 0.19524941 0.0 0.045057554 0.03754796 -0.015019185 -0.09011511 -0.19524941 0.22528778 0.12015348 -0.1877398
000020 83 97 84 87 a0 6d be 74 a5 8a 39 89 8d 8a 80 9c
       -0.03003837 0.12015348 -0.022528777 0.0 0.1877398 -0.19524941 0.41302758 -0.14268225 0.22528778 0.022528777 -0.5857482 0.015019185 0.045057554 0.022528777 -0.052567147 0.15770145
000030 82 87 88 8e 9b 6c 79 a0 72 86 19 87 8a 88 89 8e
       -0.03754796 0.0 0.0075095925 0.052567147 0.15019184 -0.202759 -0.10513429 0.1877398 -0.15770145 -0.0075095925 -0.82605517 0.0 0.022528777 0.0075095925 0.015019185 0.052567147
000040 8a 85 86 8b 71 7f 89 8c 7e 88 8b 82 92 ab 97 ba
       0.022528777 -0.015019185 -0.0075095925 0.03003837 -0.16521104 -0.06007674 0.015019185 0.03754796 -0.06758633 0.0075095925 0.03003837 -0.03754796 0.08260552 0.27034533 0.12015348 0.38298923
000050 7d 91 8a 7c 8a 83 83 c1 9b 87 ff 87 81 86 85 80
       -0.07509592 0.07509592 0.022528777 -0.08260552 0.022528777 -0.03003837 -0.03003837 0.43555635 0.15019184 0.0 0.9011511 0.0 -0.045057554 -0.0075095925 -0.015019185 -0.052567147
000060 82 87 88 84 92 87 86 95 81 79 8b 83 a7 8d 89 96
       -0.03754796 0.0 0.0075095925 -0.022528777 0.08260552 0.0 -0.0075095925 0.10513429 -0.045057554 -0.10513429 0.03003837 -0.03003837 0.24030696 0.045057554 0.015019185 0.11264389
000070 8a 88 86 89 81 88 88 7c 81 82 89 8a 9f 6c 7d 9e
       0.022528777 0.0075095925 -0.0075095925 0.015019185 -0.045057554 0.0075095925 0.0075095925 -0.08260552 -0.045057554 -0.03754796 0.015019185 0.022528777 0.18023022 -0.202759 -0.07509592 0.17272063
000080 87 81 86 88 80 9a 6d 8d 82 a1 87 88 cb a4 7a 69
       0.0 -0.045057554 -0.0075095925 0.0075095925 -0.052567147 0.14268225 -0.19524941 0.045057554 -0.03754796 0.19524941 0.0 0.0075095925 0.5106523 0.21777818 -0.097624704 -0.22528778
000090 90 7c 84 93 82 88 8a 4d 86 9d 87 aa 8d 8e 8b 93
       0.06758633 -0.08260552 -0.022528777 0.09011511 -0.03754796 0.0075095925 0.022528777 -0.43555635 -0.0075095925 0.16521104 0.0 0.26283574 0.045057554 0.052567147 0.03003837 0.09011511
0000a0 88 9a 87 8b 81 84 7e 87 92 8b 80 8c 76 8e 88 80
       0.0075095925 0.14268225 0.0 0.03003837 -0.045057554 -0.022528777 -0.06758633 0.0 0.08260552 0.03003837 -0.052567147 0.03754796 -0.12766308 0.052567147 0.0075095925 -0.052567147
0000b0 8b 8a 83 85 88 81 82 a4 86 88 89 95 89 90 89 8e
       0.03003837 0.022528777 -0.03003837 -0.015019185 0.0075095925 -0.045057554 -0.03754796 0.21777818 -0.0075095925 0.0075095925 0.015019185 0.10513429 0.015019185 0.06758633 0.015019185 0.052567147

mnas_v4_a_035_1/feature_network/lead_cell_4/op_0/depthwise_0/depthwise_Fold;mnas_v4_a_035_1/feature_network/lead_cell_4/op_0/depthwise_0/weights_quant/FakeQuantWithMinMaxVars u1 [1, 5, 5, 24] scale=0.0072075846 zero_point=131
000000 8a 88 8f 78 8c 7f 69 87 75 8a 8a 8b 59 90 b2 8f
       0.050453093 0.036037922 0.08649102 -0.07928343 0.064868264 -0.028830338 -0.1873972 0.028830338 -0.100906186 0.050453093 0.050453093 0.057660677 -0.30271855 0.0936986 0.33875647 0.08649102
000010 89 91 8b 7b 93 3a b4 77 95 90 9b 6d 94 79 64 96
       0.04324551 0.100906186 0.057660677 -0.057660677 0.11532135 -0.5261537 0.35317165 -0.08649102 0.12973653 0.0936986 0.17298204 -0.15856686 0.12252894 -0.072075844 -0.22343512 0.1369441
000020 67 94 93 98 25 9e bb 9d 97 9f 93 67 a3 36 d7 61
       -0.20181237 0.12252894 0.11532135 0.15135927 -0.67751294 0.19460478 0.40362474 0.1873972 0.14415169 0.20181237 0.11532135 -0.20181237 0.2306427 -0.55498403 0.6054371 -0.24505788
000030 93 90 95 6f 90 7b 6f 95 6c 93 91 96 28 9b 7b 9c
       0.11532135 0.0936986 0.12973653 -0.14415169 0.0936986 -0.057660677 -0.14415169 0.12973653 -0.16577445 0.11532135 0.100906186 0.1369441 -0.65589017 0.17298204 -0.057660677 0.18018961
000040 91 9a 90 68 9c 83 ca 61 84 86 88 7c 85 83 7c 81
       0.100906186 0.16577445 0.0936986 -0.19460478 0.18018961 0.0 0.5117385 -0.24505788 0.0072075846 0.021622755 0.036037922 -0.050453093 0.014415169 0.0 -0.050453093 -0.014415169
000050 7d 8a 87 85 5a 8c 6f 8a 82 8a 88 76 8b 7f a2 79
       -0.04324551 0.050453093 0.028830338 0.014415169 -0.29551098 0.064868264 -0.14415169 0.050453093 -0.0072075846 0.050453093 0.036037922 -0.0936986 0.057660677 -0.028830338 0.22343512 -0.072075844
000060 7e 80 83 83 81 87 83 79 86 84 82 7e 7d 82 88 81
       -0.036037922 -0.021622755 0.0 0.0 -0.014415169 0.028830338 0.0 -0.072075844 0.021622755 0.0072075846 -0.0072075846 -0.036037922 -0.04324551 -0.0072075846 0.036037922 -0.014415169
000070 7e 83 84 7f 84 7d 89 86 99 8f 9f 6f 96 76 5d 96
       -0.036037922 0.0 0.0072075846 -0.028830338 0.0072075846 -0.04324551 0.04324551 0.021622755 0.15856686 0.08649102 0.20181237 -0.14415169 0.1369441 -0.0936986 -0.2738882 0.1369441
000080 61 93 99 98 78 a0 ed 9f 9a 9e 96 66 a6 50 b7 5c
       -0.24505788 0.11532135 0.15856686 0.15135927 -0.07928343 0.20901996 0.764004 0.20181237 0.16577445 0.19460478 0.1369441 -0.20901996 0.25226545 -0.36758682 0.3747944 -0.2810958
000090 b6 a1 bc 58 a9 65 47 b3 38 aa b7 b3 4b d3 e2 c4
       0.36758682 0.21622753 0.41083232 -0.30992612 0.2738882 -0.21622753 -0.43245506 0.34596407 -0.5405688 0.2810958 0.3747944 0.34596407 -0.40362474 0.57660675 0.6847205 0.46849298
0000a0 bc c0 ac 44 d7 8d da 1e ad 9e ad 5d a1 6c 51 ab
       0.41083232 0.43966267 0.29551098 -0.45407784 0.6054371 0.072075844 0.6270599 -0.72796607 0.30271855 0.19460478 0.30271855 -0.2738882 0.21622753 -0.16577445 -0.36037922 0.28830338
0000b0 44 a6 b2 aa 36 c8 38 be ac b4 a5 45 c8 ca b3 26
       -0.45407784 0.25226545 0.33875647 0.2810958 -0.55498403 0.49732333 -0.5405688 0.4252475 0.29551098 0.35317165 0.24505788 -0.44687024 0.49732333 0.5117385 0.34596407 -0.6703054
0000c0 85 86 8f 75 86 82 6f 81 74 90 91 83 61 93 41 98
       0.014415169 0.021622755 0.08649102 -0.100906186 0.021622755 -0.0072075846 -0.14415169 -0.014415169 -0.108113766 0.0936986 0.100906186 0.0 -0.24505788 0.11532135 -0.4757006 0.15135927
0000d0 86 8d 90 5c 95 9d 81 69 77 7c 80 83 7a 89 83 73
       0.021622755 0.072075844 0.0936986 -0.2810958 0.12973653 0.1873972 -0.014415169 -0.1873972 -0.08649102 -0.050453093 -0.021622755 0.0 -0.064868264 0.04324551 0.0 -0.11532135
0000e0 89 83 81 77 88 7d 9f 85 7d 7f 85 7c 81 89 79 87
       0.04324551 0.0 -0.014415169 -0.08649102 0.036037922 -0.04324551 0.20181237 0.014415169 -0.04324551 -0.028830338 0.014415169 -0.050453093 -0.014415169 0.04324551 -0.072075844 0.028830338
0000f0 99 8f 9b 73 95 78 6e 95 66 92 9b 93 b7 a1 ca a3
       0.15856686 0.08649102 0.17298204 -0.11532135 0.12973653 -0.07928343 -0.15135927 0.12973653 -0.20901996 0.108113766 0.17298204 0.11532135 0.3747944 0.21622753 0.5117385 0.2306427
